data/Models/models_0.pth (torch, 527699 bytes, 10 tensors)

conv_block_1.0.weight f4 [10, 3, 3, 3]
000000 60 7d 6f 3e 86 f8 82 3e c7 22 2b 3d 49 82 8c 3e
       0.2338767 0.25580233 0.041781213 0.2744315
000010 f0 fc 82 3d c0 39 0a 3e aa 76 52 bc 1e 3f 4d 3e
       0.063959 0.13498592 -0.0128456745 0.20043609
000020 ab 9b 7a 3e 85 dc e0 bd 85 b6 51 3e d3 05 84 3d
       0.24473445 -0.10979561 0.20479782 0.064464234
000030 c3 1e 3a 3e b3 d2 91 3d ef 34 03 3e 5a 74 47 39
       0.18175797 0.07120266 0.12813161 0.00019021463
000040 09 16 38 3e 89 55 45 3d 38 f0 d2 bd ab fd 23 3d
       0.17977156 0.048177276 -0.10299724 0.04003684
000050 40 de d8 bd db 7b f4 bc 88 1f a7 bd 1a 54 ec 3d
       -0.10589266 -0.029844215 -0.08160311 0.115394786
000060 98 70 2c be c9 ca d1 bd 61 61 a0 bd c7 84 e0 bc
       -0.16839826 -0.10243756 -0.078310736 -0.027407063
000070 f7 11 ea 3d a4 74 de bd c2 2b 91 3e e6 96 40 bd
       0.11429208 -0.10862091 0.28353697 -0.047018908
000080 2a d6 7e 3e 86 99 f8 3d 5b 45 01 3d f0 9a 48 3e
       0.24886385 0.12138657 0.031560283 0.19590354
000090 e6 5a b0 3d 5b e2 5e 3e 44 4a 8d 3d 57 7d 62 3c
       0.086110875 0.21766035 0.06898931 0.013823829
0000a0 3f 95 06 3e a5 d0 42 3c 50 2e 0d 3e f9 be 6d 3e
       0.1314287 0.011890565 0.13787198 0.23217382
0000b0 b5 9f 1f 3e 8c 72 54 bd 10 d9 17 3e 92 3e 74 3d
       0.15588267 -0.051867053 0.14828897 0.059629984
0000c0 9b 43 13 3e 30 26 89 bd d4 97 1c be fe dd 30 bd
       0.14381258 -0.06696737 -0.15292293 -0.04318046
0000d0 c3 60 e8 bd 5f 5f 38 3e e2 60 1f 3e 1c f8 41 3e
       -0.11346581 0.18005131 0.15564302 0.18942302
0000e0 53 94 22 3e 61 96 02 3e b8 92 93 3e 37 46 54 bc
       0.15876894 0.12752678 0.28822875 -0.012956194
0000f0 04 93 00 3e 3f 2a 3a bc 3f 7a 28 3e 23 06 82 bc
       0.12556082 -0.011362611 0.16452883 -0.015872067
000100 37 35 ef 3d 1c 81 04 3c ab 1f 70 3e 04 27 09 bd
       0.11680072 0.008087423 0.2344958 -0.033484474
000110 74 90 3b bd 88 dd 55 bd d9 a7 76 3e ad af f3 3d
       -0.045792058 -0.05221322 0.24087466 0.11898742
000120 8a 7d 4a 3e c7 40 0f be b7 6c 37 be 59 b2 f3 bd
       0.19774452 -0.13989554 -0.17912565 -0.118992515
000130 e7 e7 bd bd ce fc d8 3d 8a ce ba 3d e8 35 3f 3e
       -0.092727475 0.10595094 0.091214254 0.18672907
000140 52 0e a9 bd 3d e2 ec bd 6f f7 f6 3d c4 84 3d bd
       -0.082546845 -0.11566589 0.12058913 -0.046269193
000150 24 67 f9 3d 7c d2 1a bd 43 58 07 3e d3 2b 0a be
       0.12177876 -0.03779839 0.13217263 -0.1349328
000160 da 0f 9d bd 67 7d c6 3d cc 21 71 3d 70 ac df bc
       -0.07669039 0.09691887 0.05887012 -0.027303904
000170 ca 27 18 3e b8 54 0e 3e 2b 31 01 be 90 ac 9e bd
       0.14858928 0.13899505 -0.12616412 -0.077477574
000180 d6 23 49 3e 5f a4 17 bd 1a 2c c8 bc f1 0e 32 be
       0.19642577 -0.03702199 -0.024435092 -0.17388512
000190 de 9b bb bd 2e 10 9c 3d 67 69 aa bc f0 3f 03 be
       -0.09160589 0.076202735 -0.020802213 -0.12817359
0001a0 e3 59 ca 3c 3e f2 f1 bd b4 74 12 be 38 05 94 bd
       0.024701064 -0.11813782 -0.14302331 -0.07227558
0001b0 d1 7b 36 be 82 16 10 be 58 24 3e 3e 75 9f 6e 3c
       -0.1782067 -0.14071086 0.18568552 0.014564385
0001c0 3c 88 e7 3c a9 ba 4b be 83 a0 fa bd bb 96 90 bd
       0.028263204 -0.19895424 -0.122376464 -0.070599996
0001d0 72 74 11 3d 24 2f 11 be 61 f9 57 bd 8e 3b 9c bd
       0.03551144 -0.14178139 -0.05272806 -0.07628547
0001e0 e1 7e e7 3c 60 3a 43 bd 6b 45 9d 3c 45 d2 94 bd
       0.028258743 -0.047663093 0.01919814 -0.07266668
0001f0 b6 db ad bd 30 c9 67 bd 67 f7 90 bc 75 07 c7 bd
       -0.08489172 -0.05658835 -0.017696096 -0.09718219
000200 02 68 64 3e 01 a5 82 3c cb e2 5f 3e 29 23 f5 3d
       0.22305301 0.01594782 0.21863858 0.11969597
000210 f1 4f 9f bd 6a 90 55 3e 1b 93 f2 3c ec 73 d9 bd
       -0.077789195 0.20855871 0.029611161 -0.106178135
000220 b4 96 4d be 67 87 74 be e1 03 ad 3c 4f 13 ad bd
       -0.2007702 -0.23879777 0.021120014 -0.084509484
000230 fe 31 da 3c b0 60 40 be a4 c3 d7 3d de 08 3c be
       0.026635166 -0.18786883 0.10535362 -0.18362758
000240 26 0f 6a bc 82 a0 5b 3d 25 36 de 3d e2 26 31 3e
       -0.014285838 0.05361987 0.10850171 0.17299989
000250 c5 d8 3f 3e 07 94 13 be 1c e4 8b 3d 96 69 8b bd
       0.18735035 -0.14411937 0.06830618 -0.06807248
000260 17 f0 1d bc 18 64 b4 bd b1 1e 69 3e 8b da bb bd
       -0.009639761 -0.08808154 0.22765614 -0.09172543
000270 fd e1 21 3e 5d dc f3 3d 45 11 e5 3d 8e 87 41 bd
       0.15808864 0.11907265 0.111849345 -0.047248416
000280 65 6e 69 3e 70 b9 be 3d 15 8f 6b 3c ef 9c 33 be
       0.22796018 0.09312713 0.014377375 -0.17540334
000290 45 19 af 3d 35 c3 31 bd f5 62 cf bd 39 f4 26 3e
       0.08549742 -0.043399055 -0.101262964 0.16304101
0002a0 fe 93 25 3d 52 c3 ef bd 56 94 d0 bd dd 37 88 bc
       0.04042434 -0.11707176 -0.10184543 -0.0166282
0002b0 db 29 d8 3d c1 2e 42 bd 5b fc f5 bd 35 fe 93 bd
       0.10554858 -0.04740787 -0.120110236 -0.072262205
0002c0 d2 a1 16 be e6 ed 8d 3d 8c ed 13 3e f7 81 3f be
       -0.14710167 0.06930141 0.14446086 -0.18701921
0002d0 cd a9 42 3d 7d c6 da 3d 29 4b 30 3d 27 38 8a bd
       0.047525216 0.1068239 0.04304043 -0.067489915
0002e0 c6 da d5 3d d0 c5 d8 3d cb 44 a7 3d 3c 99 e7 bc
       0.10442118 0.10584605 0.08167418 -0.02827131
0002f0 cc 8e 58 bd 8d 79 56 3d 6f 04 02 bd 98 c7 de bd
       -0.052870557 0.052362014 -0.03174251 -0.10877913
000300 1d a7 12 3e 19 55 22 3e 16 82 a2 bd ac 94 5b bc
       0.14321561 0.15852775 -0.07934968 -0.013402145
000310 cd 8d 16 3c 73 c5 51 bd 03 86 9d 3d 16 5c 65 3d
       0.009189081 -0.051213693 0.07691576 0.055996023
000320 ad 3c 63 be 0a ff 46 bd 9d 71 22 3e a7 f1 b6 3c
       -0.22191115 -0.048583068 0.15863653 0.022332026
000330 fc 40 b7 3c e4 b0 d9 bd 69 bf 1a be 7b 5b 05 be
       0.022369854 -0.10629442 -0.1511208 -0.13023178
000340 ef b4 45 bd bf 17 08 3d 7c 4a 22 3e a1 2f cc 3d
       -0.048268255 0.03322577 0.15848726 0.09970022
000350 27 38 52 be f4 3e 91 bd 88 90 ec bb 50 19 2c 3e
       -0.20529233 -0.070920855 -0.007219378 0.16806531
000360 fc e4 3f 3e a5 e9 f0 3d 8c 48 6f 3e 3e c6 da 3d
       0.18739694 0.11763314 0.23367518 0.10682343
000370 34 00 83 3d 6e 10 a0 3e 3c 00 8d 3d e4 6b f8 3d
       0.06396523 0.31262535 0.0688481 0.121299535
000380 8a e0 50 bd 08 55 6f 3e 28 25 84 3e 3c 7f 2d 3e
       -0.050995387 0.2337228 0.25809598 0.16943067
000390 a3 d3 21 bc 51 d2 74 bd 18 94 2d bd f1 4c 7c 3e
       -0.009877118 -0.059770886 -0.04237756 0.24638726
0003a0 be 8e 4a 3e 4d 3e 7e 3e a0 86 24 3e 6a 85 ed 3d
       0.19781014 0.24828453 0.1606698 0.11597712
0003b0 36 ff 61 3d 89 08 8f bd 25 3f aa bd cd 15 e5 bd
       0.05517503 -0.0698405 -0.08312825 -0.11185799
0003c0 e8 fe 0c 3e 05 36 0a bd 7b 61 dc 3b c7 92 f9 bd
       0.13769114 -0.033742923 0.0067254878 -0.12186199
0003d0 b9 1d 50 bd 37 b4 0a be f0 df 0e be 44 87 45 3d
       -0.050809596 -0.13545309 -0.13952613 0.048224702
0003e0 cd 45 6a bd cd bf d2 3d e3 ec 9f bd 33 90 10 be
       -0.057195473 0.10290489 -0.078088544 -0.14117508
0003f0 37 41 31 bd 69 6d dc bd 91 2a 71 bd 44 77 49 be
       -0.043275084 -0.10763056 -0.058878485 -0.19674402

conv_block_1.0.bias f4 [10]
000000 a3 46 a9 bb 0e e6 85 be c3 b0 76 ba 5b cd a3 3e
       -0.0051658913 -0.2615208 -0.0009410495 0.3199261
000010 95 56 9f 3e 41 6c ed 3c 9c d1 12 be 20 40 38 3d
       0.31120744 0.028982284 -0.14337772 0.04498303
000020 68 f0 8a bc 24 36 53 be
       -0.016960338 -0.20626122

conv_block_1.2.weight f4 [10, 10, 3, 3]
000000 e8 a0 b1 3b d1 1b a5 bc a9 21 3e 3d 4a 8d f6 bc
       0.005420793 -0.020154865 0.04641882 -0.030096669
000010 4d 16 56 bc c7 06 39 3c b6 d0 96 bd d2 0d 00 3e
       -0.01306684 0.01129312 -0.07364027 0.12505272
000020 db 76 11 3e 0b 0e c4 bd a3 76 80 bd ea 53 75 bd
       0.14205496 -0.09572991 -0.06272628 -0.05989448
000030 3d 45 2a be 83 fd 21 be 1a dd a9 bb 02 aa 85 bd
       -0.16627975 -0.15819363 -0.005183828 -0.06526567
000040 05 d2 8b bd 49 6b 2f 3c b9 36 0b bc 67 7e cb ba
       -0.068271674 0.010706731 -0.008496934 -0.0015525342
000050 12 f7 21 3d 0f 7d 3c 3b ab e2 cc bb 51 e6 47 bc
       0.039542265 0.0028761064 -0.006252607 -0.012200908
000060 6b d9 30 bd 34 8a 08 3e d3 1b 56 3c 90 99 7f 3e
       -0.043176096 0.1333397 0.013068157 0.24960923
000070 19 f3 34 3e 2d 10 4b 3e 87 e1 97 3e a4 de 74 3e
       0.1767086 0.1983039 0.2966425 0.23913056
000080 19 7e a1 3d 42 74 55 3e 2b fb 85 3e 45 03 2b 3e
       0.07885379 0.2084513 0.26168188 0.16700466
000090 e7 75 3b 3e da 74 66 3e 99 85 bb 3d 7e 96 02 3e
       0.18306695 0.22505513 0.09156341 0.1275272
0000a0 be 59 2a 3d 97 31 a1 3d a4 cf 47 3e d8 13 36 3e
       0.04158949 0.07870787 0.19512802 0.17781007
0000b0 40 98 10 3d cd 1d 42 be 66 a8 1c be 4d f4 46 be
       0.035301447 -0.1895668 -0.15298614 -0.19429131
0000c0 60 4f 40 be 8a 05 f3 bd bc c0 b9 bc 5c f5 47 bd
       -0.18780279 -0.11866291 -0.02267491 -0.048817977
0000d0 94 bc 02 be 2d 42 19 be 0b 93 6d 3a b4 1e c2 bd
       -0.1276725 -0.1496665 0.00090627436 -0.094785124
0000e0 75 92 95 bd bb e5 ff bc 06 ad 89 bd 84 22 18 bd
       -0.07303325 -0.031237474 -0.06722455 -0.03714229
0000f0 fe 41 96 bd 53 8f 14 bd d2 3a 19 be ec 1f 0c bd
       -0.07336806 -0.036269497 -0.14963844 -0.03421013
000100 5d 05 20 bd de 62 4a 3d 4c e0 ac 3d 5a ab 5f bd
       -0.039067615 0.049410693 0.08441219 -0.054606773
000110 18 2d 17 bd a1 23 85 3d 3c 05 60 3d 87 e2 08 3e
       -0.03690824 0.06500936 0.054692492 0.13367663
000120 a5 a8 d4 3d 15 00 b1 3d b4 c5 9a bd a9 80 00 3d
       0.10383729 0.08642594 -0.0755724 0.0313727
000130 27 3c b7 3d 29 23 91 3c 75 71 28 bd 2c 94 01 3e
       0.0894702 0.017716961 -0.041123826 0.1265418
000140 fe 2d 0d bc 6f d1 75 bd 45 a0 c2 bd 60 49 9a 3b
       -0.008616922 -0.060014185 -0.09503225 0.004708454
000150 55 53 3f 3d 03 b0 98 3c 49 b1 3d 3c 23 b8 a3 bd
       0.04671033 0.018638616 0.011577913 -0.07994106
000160 1a 9b c9 bd 9b 32 ec b9 9c 3d 57 3e d6 32 32 3e
       -0.098440364 -0.00045051132 0.21019596 0.17402205
000170 d6 1d 1c 3d bd e3 dd 3d e1 c7 31 3d 85 df 61 3d
       0.03811439 0.10834453 0.04340351 0.055144805
000180 9f e9 fb 3d 25 84 22 3e 93 b5 31 3e 27 66 47 3d
       0.12300419 0.15870722 0.17354421 0.048681404
000190 a6 38 64 3e 04 09 75 3d 01 98 31 3e f3 2a 64 3e
       0.22287235 0.05982305 0.17343141 0.22282009
0001a0 e2 35 e5 3d f8 4e 33 3e e3 9e c8 bb 83 f5 a7 3c
       0.11191918 0.17510593 -0.0061224564 0.020502811
0001b0 bf 52 0e 3e ac d9 81 3d 62 5f 69 3d be 8f 10 3d
       0.13898753 0.06340346 0.05697573 0.035293333
0001c0 43 75 24 3e 58 79 07 3e 92 44 c5 3d 3c af 30 3c
       0.16060357 0.13229883 0.096322194 0.010783967
0001d0 1b e9 b7 bc 22 00 03 be 63 0f e5 bd 56 b5 3b be
       -0.02245002 -0.1279302 -0.111845754 -0.18330893
0001e0 e9 f9 22 be 24 a7 86 bd 66 5a fe bd cb 1c db bd
       -0.15915646 -0.06574848 -0.12419586 -0.10698851
0001f0 eb 4d 13 be cf d0 56 be 2b 18 6d be 3d e5 53 be
       -0.14385192 -0.20978092 -0.2315375 -0.20692916
000200 69 25 5b be 0e eb ed bd e0 bb 4b be 65 25 60 be
       -0.2140099 -0.11617099 -0.19895887 -0.21889265
000210 34 94 49 bd a2 1e 06 be 6c be c5 bd 39 58 d5 bd
       -0.049213603 -0.13097623 -0.09655461 -0.10417218
000220 09 94 bd bd 21 d5 9e 3c 43 f4 1f be 5c d0 19 be
       -0.09256751 0.019388737 -0.15620522 -0.15020889
000230 d5 8b 5b bd ca 37 06 be aa d5 2c be 78 2a 16 3c
       -0.05360015 -0.1310722 -0.16878381 0.009165399
000240 3f 10 fb 3d 62 db 65 3d bd f2 1b bd b3 68 8f bd
       0.12258958 0.056117423 -0.03807329 -0.07002392
000250 d4 3f 65 3a 4f 93 ee 3b 49 0e a2 3d 25 bd 9e 3c
       0.0008745168 0.007280744 0.07912881 0.0193773
000260 99 52 88 bd ff 80 c8 3c 17 41 76 bd 4b c3 03 3e
       -0.06656379 0.024475573 -0.06012067 0.12867467
000270 17 f3 42 be 92 67 85 bd 70 c3 58 3c e3 7e 35 bd
       -0.19038044 -0.06513895 0.01323019 -0.04431046
000280 ad c7 4e bd 6d 84 02 3e 08 e4 89 3d 89 85 1f 3e
       -0.050483394 0.12745829 0.06732947 0.15578283
000290 ab 0c 22 3e 90 37 03 3d fa 39 4f 3c ad 7e 24 3e
       0.15825145 0.03203541 0.0126481 0.16063948
0002a0 e5 1f 23 3e 6e 1d af 38 2c a6 68 3d 15 e2 d4 bd
       0.15930136 8.350132e-05 0.0567991 -0.10394684
0002b0 b9 b7 b0 bd e7 03 86 3c 68 b9 e5 3c 5f 0c b7 3c
       -0.08628792 0.016359283 0.02804251 0.022344766
0002c0 fe fc 49 bd 15 2a c7 3d 32 ed 76 3c 53 62 8a bd
       -0.049313538 0.097248234 0.0150712 -0.06757035
0002d0 c7 4f 09 3d ab f8 78 3d af 69 91 3d 05 5f a5 bd
       0.033523347 0.060784023 0.07100236 -0.08074764
0002e0 9a 63 34 3d ba f0 4a bd ec 54 c4 bd 02 30 7c bd
       0.0440403 -0.04954598 -0.0958651 -0.06156922
0002f0 d4 d0 c7 3d e2 d2 9d 3d 59 b7 de 3d e2 b5 c2 3d
       0.09756628 0.07706238 0.108748145 0.09507348
000300 0e 68 6a 3d 75 0f 34 bd 4d 8d 9c bd 59 fc 01 bd
       0.05722814 -0.043960053 -0.076441385 -0.031734798
000310 53 a9 0c be b1 07 08 be 80 ff e7 3b 8f f0 1d 3d
       -0.13736467 -0.13284184 0.0070800185 0.038559493
000320 0f dd a4 3d 40 de b3 bc 4a 9f 94 bd fb 73 86 3c
       0.08049976 -0.021956563 -0.072569445 0.016412726
000330 f2 76 49 bd d7 dd be bd a8 bc 36 3d 80 8e 86 3d
       -0.0491857 -0.09319656 0.04461351 0.065701485
000340 11 a7 1e 3e b2 ef 2a 3e 4c 7e dc 3d cd 75 b8 3d
       0.15493418 0.16692999 0.10766277 0.09006844
000350 a4 2a ad 3d 5a a0 df 3d 87 3c c7 3d bf 05 e5 3d
       0.08455399 0.109192565 0.097283415 0.111827366
000360 94 2f 91 3d 5d 4c f9 3d 14 ef cf bc 3f c5 8d bb
       0.07089153 0.12172768 -0.025382556 -0.004326492
000370 cd c9 b0 3b 3b d4 82 bc 24 9a bc 3d c6 6a 0a 3e
       0.0053951503 -0.01597034 0.092090875 0.13517293
000380 b8 1f 22 3e fe d5 46 bc 3c 95 b1 bd eb da 7a bd
       0.15832412 -0.012135981 -0.08671042 -0.061243933
000390 e2 88 c5 bd ab 2c 17 bd bf 84 ec 3b fc 5e 00 be
       -0.09645249 -0.036907833 0.007217973 -0.12536234
0003a0 e9 fb 92 3c a3 0a 84 bd cc f6 16 bd 6d 2c a6 bd
       0.017942386 -0.06447341 -0.036856458 -0.08113942
0003b0 12 67 27 3c 08 31 42 bd ee c5 21 3e f7 80 89 bd
       0.010217445 -0.04741004 0.1579816 -0.06714051
0003c0 a9 f5 29 3d 87 eb 06 3e 7d c0 14 bd 9c 8b 2e 3d
       0.041494045 0.13175784 -0.036316384 0.04261361
0003d0 a0 fa b7 3d 3f b7 03 be 58 76 d4 3c 0d b2 60 3c
       0.0898335 -0.12862872 0.025935337 0.013714326
0003e0 52 50 90 bc 61 fe 80 3d 9d a1 79 3d fa ee 85 bd
       -0.017616425 0.06298519 0.060945142 -0.06539722
0003f0 e4 06 46 3d 1d 31 0b 3e 6a af df 3d 2d fd a1 3c
       0.048346415 0.13592954 0.109221295 0.019774044

conv_block_1.2.bias f4 [10]
000000 20 16 fd 3d a8 a5 da bc af 59 80 bd f3 e6 ad bd
       0.12357736 -0.02669032 -0.06267106 -0.08491316
000010 c4 ec 36 bd d2 14 db bd 29 2e 48 3d 80 ff 9e bd
       -0.04465939 -0.106973305 0.048872147 -0.077635765
000020 ba 2d da 3d cf 60 2c 3d
       0.10653253 0.04208451

conv_block_2.0.weight f4 [10, 10, 3, 3]
000000 0f 7e f2 bd 14 70 cf 3d bd bd 02 3d fb 06 25 be
       -0.1184045 0.10128799 0.03191923 -0.16115944
000010 8a ed 34 bd f0 d0 bd bd c1 45 17 be f1 dc 9b 3c
       -0.044171847 -0.09268367 -0.14772703 0.019026252
000020 05 8c 19 3d 78 e0 b4 bd 4c ca 3a bc 74 72 83 3c
       0.03748705 -0.088318765 -0.01140077 0.016045786
000030 c3 4b d2 bd 48 5b 12 3e 38 d5 67 3c 92 b0 16 be
       -0.10268357 0.14292634 0.014149956 -0.14715794
000040 a7 7a 76 3d 48 d7 d1 3c f0 ef 04 3d 9e 4a 84 3d
       0.060175564 0.02561535 0.032455385 0.064595446
000050 0c f0 a9 3d bb 61 f0 bd 63 a3 ca 3d f8 95 0c 3e
       0.082977384 -0.117373906 0.09894445 0.13729084
000060 c3 08 f8 bd 7b 67 14 3e ab f7 fc 3d b0 4d 97 3a
       -0.12111046 0.144926 0.123519264 0.0011543538
000070 21 2c 50 3d 89 f3 16 bd 12 49 bc bd 5f 47 da 3c
       0.050823335 -0.036853347 -0.091936246 0.02664536
000080 ac b7 00 3d d0 16 8d bd d4 66 51 3d 74 68 b8 bd
       0.031425163 -0.06889117 0.051123455 -0.09004298
000090 af aa a4 3c 4b f9 0c 3e e6 41 a7 3d b9 4d 0e be
       0.02010092 0.13766973 0.08166866 -0.13896836
0000a0 cb a8 ab 3d 44 cd 97 3d c1 9e 50 bd 64 08 33 3d
       0.08381804 0.07412198 -0.05093265 0.043709174
0000b0 ae 93 e0 3d 6d ca c6 bd 9a 0d c0 3c 89 6d bc 3d
       0.10965668 -0.097065784 0.023443986 0.0920058
0000c0 e1 8c 08 bd 2a 62 05 3e fe ff 8f 3c 70 03 8f bd
       -0.033337478 0.13025728 0.017578121 -0.069830775
0000d0 41 ad 0a 3d 58 3a 58 3c 3b 94 87 bd 4d 5a 0b 3c
       0.033856634 0.013197504 -0.066200696 0.008505416
0000e0 dc df 34 be ef de 10 be b7 99 4b bd 98 19 84 bd
       -0.1766352 -0.14147542 -0.04970714 -0.06450194
0000f0 83 1e 07 be 3e a7 c5 bd e3 94 8d bd 4b f1 6d bd
       -0.13195233 -0.096510395 -0.069131635 -0.058091443
000100 36 55 16 3d a8 60 35 3e 3e 03 9c bd 15 48 07 3e
       0.036702357 0.17712653 -0.07617806 0.13211091
000110 1f 72 ec 3d fd 88 1e be e6 4b 54 3d 8c 41 15 3e
       0.11545204 -0.15481944 0.051830195 0.14575785
000120 b4 91 7d be 32 ff ba bd c9 2a 99 3d f2 3d be bd
       -0.24762613 -0.09130706 0.07478864 -0.09289159
000130 81 11 a9 bd 7b 51 12 3d 5b cf 34 be f1 45 f1 bd
       -0.08255292 0.035722237 -0.17657225 -0.117809184
000140 e2 8c 51 bc a5 6d ce bc fb b6 6f bc 94 46 92 3d
       -0.012789937 -0.025198767 -0.014631028 0.07142368
000150 f0 fd 1a be 3b ee b7 3d c2 e0 04 3e 65 28 d8 bb
       -0.15135932 0.08980986 0.12976363 -0.0065966123
000160 d5 38 a8 3c 9c 26 77 3d 6b 03 31 be 01 6c 9d bd
       0.020534912 0.060339555 -0.1728646 -0.07686616
000170 0c 79 2e 3c 13 59 9d bd 4a fd 6e bd 6c 1f 11 3e
       0.010648977 -0.07683005 -0.058347024 0.14172143
000180 08 c8 3a 3e 48 0c 5a 3d 88 8f 29 3e 8c 00 ef 3d
       0.18240368 0.05323437 0.16558659 0.11670026
000190 32 f6 1a 3e 80 5a bd 3d 3d 37 fe 3d ef b1 20 bd
       0.15132979 0.09245777 0.124128796 -0.03923219
0001a0 7c 52 52 3d f7 65 cc 3c 8f 5b 4e be 7a 01 4d be
       0.051348194 0.024950964 -0.20152114 -0.20020095
0001b0 5d c3 39 3d 1a 29 19 3e 2f c4 b3 3c aa eb ab 3d
       0.04535233 0.14957085 0.021944134 0.08394559
0001c0 72 63 ac 3d 05 68 d0 3d 73 b3 8f 3c 8b f2 f9 3d
       0.08417405 0.1017609 0.017541623 0.122044645
0001d0 12 74 0f 3e f2 c9 95 bd e9 d7 85 3a 68 56 99 39
       0.14009121 -0.07313909 0.0010211441 0.00029246812
0001e0 cd a4 0a 3d d6 1b c9 3d 97 3c fd 3c 84 35 c4 bc
       0.033848573 0.098197624 0.03091268 -0.0239513
0001f0 25 e3 c1 3d 27 4c 24 bd aa 58 ad 3d 66 8e c1 3d
       0.094671525 -0.040111687 0.08464177 0.094509885
000200 cb f6 63 bc 3a 6c 85 3d 31 17 61 bd b1 ba 24 3c
       -0.0139138205 0.06514783 -0.054953758 0.010054276
000210 ed 63 59 bd d4 4b cb bd ae 53 63 be bd c2 32 3c
       -0.053073812 -0.099265724 -0.2219989 0.010910687
000220 4b ec ff 3d 0a c4 17 3e 29 31 d0 bc e0 04 96 3d
       0.12496241 0.14820877 -0.025414066 0.073251486
000230 a9 f3 94 bd a4 a5 1c bd aa 60 83 bc 23 ea 6e bd
       -0.07273037 -0.038243905 -0.016037304 -0.05832876
000240 e6 84 d1 bd 1c bc 69 3d 5d 25 9d 3d 4f c9 3e 3c
       -0.102304265 0.05706416 0.07673142 0.011644675
000250 b8 34 f9 3d aa 49 75 3b 47 1e 2e bc aa 3d 46 bc
       0.121682584 0.003742794 -0.010627336 -0.012099663
000260 54 9f 9a 3d 15 80 23 3e 3a 76 e7 3d 62 ad c3 3c
       0.07549921 0.15966828 0.11301847 0.023886386
000270 6d 71 8c 3d 36 2b e3 3d c1 40 1e bd 3f 39 7f bd
       0.06857572 0.11092226 -0.038635973 -0.062310454
000280 05 cc d5 bd de 9f 21 be d4 79 3e bc a0 01 29 bd
       -0.10439304 -0.1578364 -0.011625726 -0.041261315
000290 64 9f 9e 3d dc 56 13 bc 97 fc 40 bd ed 26 e6 3d
       0.07745245 -0.008992877 -0.04711589 0.11237893
0002a0 7b 9b af 3d 2c 25 63 3d da 2e 07 3d e9 79 93 3d
       0.085745774 0.05545537 0.033003666 0.07200987
0002b0 2c 66 88 bd 43 a2 45 3d 71 39 92 3d e2 68 bd bd
       -0.06660113 0.048250448 0.07139862 -0.092485204
0002c0 5c f2 a9 bd 99 f8 b4 bd 99 55 50 3d c9 5a 13 3d
       -0.082981795 -0.08836479 0.050862882 0.03597525
0002d0 6c da f3 3d 82 3b 4d 3e a8 df 1e 3d 48 0d 22 3c
       0.11906895 0.20042232 0.038787514 0.009890862
0002e0 96 aa 14 3e 6d 5b e9 3d 2f 97 55 3e 09 e8 cf 3d
       0.14518198 0.11394391 0.20858453 0.10151679
0002f0 0e 4b 21 3e 9e 76 86 3d d7 f8 e2 3d 70 f1 0f bd
       0.15751287 0.06565593 0.11082619 -0.035142362
000300 4b 52 1d 3d 7d 2c d7 bd a8 b3 04 3e 8c e1 79 bd
       0.03840856 -0.10506532 0.12959158 -0.061006114
000310 ef 32 04 be fd 4d 3f 3d 50 0d fb 3d 71 75 2c 3d
       -0.12910055 0.046705235 0.122583985 0.04210419
000320 96 f4 8b 3d 70 ef f8 3d e4 85 30 3e 57 1a 3c 3d
       0.068337604 0.12155044 0.17238575 0.045923557
000330 4d 27 26 3e b9 31 bf 3d 30 ca c0 3d 93 3a a5 3c
       0.1622593 0.09335656 0.09413564 0.020169532
000340 91 ac 8d bd 03 70 b3 bd b0 a9 07 bd bc 2a c9 bd
       -0.0691768 -0.08761599 -0.03312081 -0.09822604
000350 8c 59 49 bd 11 e8 9e 3b ea 2d 8e bd 3e 17 33 bd
       -0.049157664 0.004849442 -0.06942351 -0.043723337
000360 ca 31 1d bd 92 0f bc 3c 25 f0 8e 3c 1d 09 93 bd
       -0.03837756 0.022956643 0.017448494 -0.071794726
000370 92 4e 1a bd 87 65 8c 3d 8e 1a a7 bd bd 36 d4 bd
       -0.037672587 0.06855302 -0.08159362 -0.10362003
000380 ab 84 aa bc 15 76 10 bd be 2e 3d bd 26 ef c8 3d
       -0.020815214 -0.03526886 -0.046187155 0.09811239
000390 9a 69 db bd 8a 0f ab 3c 46 20 b2 3d 39 d2 09 bd
       -0.10713501 0.020881433 0.08697562 -0.03364775
0003a0 1a 9d 65 bd 3e ff 0c bd 42 b9 6f 3d fa d8 8d bd
       -0.056058027 -0.034423105 0.058526285 -0.069261506
0003b0 61 53 b2 bc 48 56 5e bc 20 32 d9 bc 2a 09 0b bd
       -0.021768274 -0.013570376 -0.02651316 -0.033944286
0003c0 c4 ba ef 3d 7c 24 9b 3d 14 05 1f 3d 16 11 ba 3d
       0.117055446 0.07575318 0.038823202 0.0908529
0003d0 ed 28 38 bd 3b de ea 3d 31 23 8c bb 61 f3 a1 3d
       -0.044960905 0.11468168 -0.004276656 0.07907749
0003e0 52 ca b1 bb ed 7d 78 bd ad 4c 95 bd b7 cf 8f 3d
       -0.00542573 -0.060666967 -0.07290015 0.0702204
0003f0 5b 0b 9e bc df 35 b4 bd cc b0 e6 bd 70 2e 81 bd
       -0.019292524 -0.087993376 -0.1126419 -0.063076854

conv_block_2.0.bias f4 [10]
000000 70 f2 76 36 52 39 01 bd ea 9b 3a 3d 79 47 3c 3d
       3.6797974e-06 -0.031548806 0.045558847 0.0459666
000010 46 cc cb bc fd 70 98 bc 2f 2e 33 3d f4 45 8a bd
       -0.024877679 -0.018608565 0.043745216 -0.06751624
000020 86 13 c0 bc e8 c8 c7 bd
       -0.02344681 -0.09755117

conv_block_2.2.weight f4 [10, 10, 3, 3]
000000 19 59 c7 3d 4d 28 12 bb 55 d7 c3 bc 80 83 cc bd
       0.09733791 -0.0022301853 -0.02390639 -0.09986019
000010 46 56 b4 bd 14 8c dc 3c ea f4 26 bd fb d8 89 3c
       -0.08805518 0.026922263 -0.040760912 0.016827097
000020 72 a1 d4 3a 59 2f 5b 3e 98 a9 98 3e a9 db 5d 3e
       0.0016222431 0.2140478 0.2981689 0.21665825
000030 cd 81 59 3d 04 fc fd 3d 39 af 18 3e 8d 08 08 3d
       0.053102303 0.12401584 0.14910592 0.03321128
000040 6d fd 6f 3d 46 ae 93 3c dc 76 f5 3d b0 97 0e 3e
       0.058591295 0.018027436 0.11985561 0.13925052
000050 80 f5 09 3e 0b 9a 90 3d 4b 11 37 3e 3e 56 4b 3e
       0.13472557 0.07060631 0.1787769 0.19857118
000060 09 e4 9b 3d 87 da 8f 3d 17 1e 43 3e a7 e6 e5 bd
       0.07611854 0.07024103 0.19054447 -0.11225634
000070 c7 8d 2d 3d f2 7d 05 3d 4c 93 55 bd 9c c1 25 be
       0.042371538 0.032590814 -0.052142426 -0.16187137
000080 3b c6 57 be 6a 4f a8 3c 2c 1b 2b be dc e2 80 bd
       -0.21071713 0.02054568 -0.16709584 -0.0629327
000090 ee b8 1c 3d d5 8a f4 bd 2d ec 20 bc 12 e7 8f bd
       0.0382623 -0.119405426 -0.009821934 -0.07026495
0000a0 4c f6 f9 3c 6a 1f df bd fa 02 99 3d 90 59 83 3d
       0.030512951 -0.10894664 0.07471271 0.06413567
0000b0 bb b2 79 3d 13 82 08 bd 58 3b 14 be 60 57 82 be
       0.060961466 -0.033327173 -0.14475763 -0.25457287
0000c0 80 69 e7 3c 3b b6 09 be 05 f9 2a be f8 d0 36 3d
       0.028248549 -0.13448422 -0.16696556 0.044632882
0000d0 2e 9f 81 3d df a7 05 3d 23 29 e2 3d 95 fa b3 3d
       0.06329189 0.032630797 0.110430025 0.08788029
0000e0 62 b9 c9 3d 5d d8 eb bb c1 b7 1c be 04 bd e7 bd
       0.09849812 -0.0071974234 -0.15304472 -0.11315349
0000f0 b7 cf e9 bd e5 99 1a be c3 33 36 3c 76 b0 0c 3d
       -0.114165716 -0.15097769 0.011120739 0.034347974
000100 84 98 a2 3d cb 52 39 bb a4 1f 57 be 43 a8 2a be
       0.07939246 -0.0028278108 -0.21008164 -0.16665749
000110 f9 eb 86 bd ac 4c 85 3d e7 fe 06 be 93 01 3f be
       -0.06587977 0.065087646 -0.13183175 -0.18652944
000120 fc 10 9c bd d1 a4 70 bd 62 e3 37 3d a9 5d e1 bc
       -0.07620427 -0.05875093 0.044894584 -0.027510481
000130 53 25 1d 3d c3 01 74 ba 06 d5 25 bd b2 04 94 3d
       0.038365673 -0.0009308124 -0.040486358 0.07227458
000140 85 4f 33 bd 1d 81 65 bb 2c 76 24 bd 9f 68 0c be
       -0.043777008 -0.0035019584 -0.04015176 -0.13711785
000150 15 3b 8b 3c 54 87 f9 3c 9e 7e ec bc 06 6e 84 3d
       0.016995946 0.030460037 -0.02886897 0.06466298
000160 9a a7 c1 bd 7a 30 b4 bd 71 bb a6 bd 04 1e c7 bc
       -0.094557956 -0.08798309 -0.0814122 -0.024306305
000170 b7 4f 8c bc e8 4c ab bc 28 ef 83 3d 0b 02 b8 bd
       -0.017127855 -0.020910695 0.064421 -0.08984765
000180 19 ef c9 bc 86 1b 93 bc b6 2d 66 3a 81 b7 71 3e
       -0.024650143 -0.01795746 0.0008780615 0.23605157
000190 ae 8b 3b 3e ab d7 4d 3d 70 9f 3c bb ef 71 61 3d
       0.18315002 0.050254505 -0.0028781556 0.055040296
0001a0 1c 13 f0 3c c2 e8 4c 3d 8c 55 eb bc 22 47 96 3d
       0.029305987 0.050026663 -0.028727315 0.07337786
0001b0 53 4f 8c 3d d2 b6 2e 3c 81 14 17 3d d6 5a 61 3d
       0.068510674 0.010663705 0.03688479 0.05501827
0001c0 8e 56 83 3c dc c8 f4 3d a1 d5 64 bd 3f 33 a8 3d
       0.016032483 0.119523734 -0.055867795 0.082128994
0001d0 c0 15 fe bc b6 a6 d5 bd 50 d4 03 bd 60 eb 5f 3d
       -0.03101623 -0.10432188 -0.0321849 0.05466783
0001e0 cd f6 43 3d 78 e5 3f 3c 26 47 a3 bc 44 cb 33 bd
       0.04784279 0.011712424 -0.019931387 -0.04389502
0001f0 6c 6a 8b bd 96 44 c8 bc df 39 f1 3d 5a c5 67 3e
       -0.06807408 -0.024446767 0.11778616 0.22633877
000200 25 32 55 3e 7b b7 c8 3c e0 a6 de 3d 61 70 54 3d
       0.2081991 0.024501553 0.10871673 0.051864985
000210 10 f2 89 3d 84 ba 92 3b 55 91 f7 3d 21 1c 86 bd
       0.06735623 0.004477801 0.12088267 -0.06548334
000220 7b a5 d8 3d 16 05 a5 3d ae fd 7e bd 43 9e d3 bd
       0.10578438 0.08057611 -0.062253647 -0.103329204
000230 b6 a2 73 3c e3 6e 32 bd 7e 17 67 3c a1 cb 91 bd
       0.014870336 -0.04356278 0.014104722 -0.07118917
000240 81 9b d3 3c b8 d2 e4 bd 0e 91 66 bd b6 a0 e2 bd
       0.025830986 -0.11173004 -0.05629068 -0.110658094
000250 1b 63 30 3a 64 33 0f bd 91 ab 36 be 67 11 fe bd
       0.0006728635 -0.03496112 -0.17838885 -0.12405663
000260 40 50 c1 bd 99 aa b4 bd f9 26 3a bb d7 b3 f6 3c
       -0.094391346 -0.088216014 -0.0028404577 0.030115051
000270 06 f2 2e bd a0 f7 65 bd 8c 58 96 bc 94 7d b3 bd
       -0.04271128 -0.056144357 -0.01835277 -0.087641865
000280 d1 f0 5b bd f5 bd fd 3b 6a cc b0 3d d5 79 2f bd
       -0.053696457 0.007743592 0.08632739 -0.042840797
000290 a1 28 27 3d dd 7b 07 bd d6 e3 41 bd 8e 0b fe bd
       0.04081023 -0.03307711 -0.047336422 -0.12404548
0002a0 d7 b7 88 3d 4c 9a eb 3d 8b e3 7c bc 97 29 89 3d
       0.0667569 0.11504039 -0.01543511 0.06697386
0002b0 64 93 b0 3d 57 57 91 3d e3 5c 5e 3d 94 83 cd bd
       0.086218625 0.07096737 0.054287802 -0.10034862
0002c0 ec 20 ab bd f8 b1 a5 bd 13 0c 07 3d 4d f7 9c bd
       -0.08355889 -0.080905855 0.0329705 -0.076643564
0002d0 48 88 ed bd 32 c4 b1 3c 2f 97 4b 3c 93 51 32 bd
       -0.11598259 0.021699999 0.012426182 -0.043534826
0002e0 2a dc d8 3c 2c 7d a4 bb 61 78 d6 bc f5 32 8b bd
       0.02647217 -0.0050198045 -0.026180448 -0.06796829
0002f0 7d 36 91 bd 74 72 26 3e d8 36 2b 3e 0f ed 91 3d
       -0.07090471 0.16254598 0.1672014 0.071252935
000300 79 12 ad bd f4 40 86 bd 57 4d 4f 3c 10 15 f4 3c
       -0.08450789 -0.065553576 0.012652717 0.0297952
000310 e9 ec 7c 3c a6 a3 a7 bd 88 b2 1f bd 27 c2 ce bb
       0.015437343 -0.0818551 -0.03898862 -0.006309766
000320 82 26 6e 3d 50 a8 a1 bc 10 d8 98 bc 38 66 fc bb
       0.058142193 -0.019733578 -0.018657714 -0.007702615
000330 48 5c 67 bd a9 d1 05 be 15 93 86 bd 02 05 0e be
       -0.05648449 -0.1306826 -0.065710224 -0.13869098
000340 65 da c0 bd d1 bb 38 3d 0b fa 24 3c bd 54 ae bd
       -0.094166555 0.04510099 0.0100693805 -0.08512256
000350 33 db 3f bd 30 79 9c 3d 26 07 89 bc c1 37 0a be
       -0.046839904 0.07640302 -0.016727041 -0.13497831
000360 e3 34 18 bc c3 e9 02 3b 86 72 86 3d 57 5e 1d bd
       -0.009289953 0.0019975759 0.06564812 -0.038420048
000370 87 e9 3c 3d 75 c5 da 3c 40 6a 2f 3e 81 db 1d 3e
       0.046121147 0.026705483 0.17130375 0.15415765
000380 0f 88 05 3e f3 13 0f 3d 89 7a c8 bd 6a ba 82 bc
       0.13040183 0.034931134 -0.09788997 -0.01595803
000390 33 87 1a bc f6 25 59 bd 79 fa 94 bd eb 18 1b 3e
       -0.009431648 -0.053014718 -0.07274336 0.15146224
0003a0 f4 d2 6b 3d 71 f6 b6 3d 4c ea 4c 3d 17 f9 c8 bd
       0.057574227 0.08933724 0.05002813 -0.09813135
0003b0 44 b9 10 3c 71 3a 8c bd 49 f3 aa bd bd 09 80 bd
       0.008833233 -0.06847084 -0.08347184 -0.062518574
0003c0 a6 d3 ac 3d 9d 44 28 bd 17 a7 0d be 0e c5 64 bc
       0.08438806 -0.04108106 -0.13833271 -0.013962997
0003d0 e2 01 d6 3c 1d 3b a5 3c a7 37 a6 bc b5 fa 06 be
       0.026123945 0.020169789 -0.020290209 -0.13181575
0003e0 f3 61 e1 bd d0 01 b7 3d fe 22 c1 bd d9 fe 9a bd
       -0.110050105 0.089358926 -0.09430502 -0.075681396
0003f0 e4 3b d7 3c 83 7e db 3d 22 5f 28 bc 91 46 05 3c
       0.026273675 0.107174896 -0.010276588 0.0081345

conv_block_2.2.bias f4 [10]
000000 f8 ba 98 3d e8 f4 03 3e 3a e3 dd 3c 31 60 e4 bd
       0.074575365 0.12886393 0.02708589 -0.111511596
000010 cd 03 99 bd 93 42 bc bd 3d fb 68 bd 13 7e 06 3e
       -0.07471428 -0.091923855 -0.056880224 0.13134031
000020 0d 14 c3 bd e7 e2 9e bd
       -0.09525309 -0.07758122

classifier.1.weight f4 [50, 2560]
000000 39 c2 cf bc 05 50 a7 3b b7 9c 01 bc e5 13 00 3d
       -0.025361167 0.0051059746 -0.007910899 0.031268973
000010 81 f1 26 3d 57 61 3f bb 03 37 86 bb 1b 88 8a 3c
       0.04075766 -0.0029202306 -0.0040959134 0.016910603
000020 b5 c9 3f 3c 5e ee 98 3b ae 98 a1 3a 77 59 84 3c
       0.011705806 0.0046670875 0.0012328827 0.016155941
000030 5e 41 2b 3c c1 c7 27 bd a2 5d 8d bc 7b 64 96 bc
       0.0104525965 -0.040961985 -0.017256562 -0.01835846
000040 c4 7f 04 3d f5 76 a5 3c db 94 36 3c 9b f8 9c 3c
       0.03234841 0.020198325 0.011143888 0.019161513
000050 08 1a 73 3d 55 34 e8 3b 5f 53 9e 39 a2 26 d0 bb
       0.059350997 0.0070863166 0.00030198225 -0.0063522616
000060 9a 9f 62 3c 5c a5 f0 bb 24 dd cc 38 33 70 10 3d
       0.013831997 -0.007343931 9.768669e-05 0.03526325
000070 96 06 34 3b 76 61 b4 3a 7b cf 31 3c 46 06 19 3c
       0.0027469746 0.0013761956 0.01085269 0.009339875
000080 99 bf 67 3b 4a b1 a8 3c 64 fa ca bc ad 85 e2 3b
       0.0035362004 0.02059235 -0.024777599 0.006912908
000090 29 67 e9 3c 1b 7e 01 3d 1b 98 2e b9 5c 69 96 3c
       0.028491573 0.031614404 -0.00016650597 0.018360786
0000a0 18 5f 03 3d 1c 0d 39 3c b6 74 20 3d 3c cf 63 3c
       0.03207311 0.011294629 0.039173804 0.013904389
0000b0 69 2b f6 bb 37 c8 a2 3b 0b b8 b6 3b e7 2a 87 bb
       -0.007512499 0.004967715 0.005576139 -0.0041249874
0000c0 24 09 4c bd d6 c6 c4 ba 27 e0 ff 3b 29 87 90 3c
       -0.049813405 -0.0015012871 0.0078087035 0.017642574
0000d0 ca 0c bf bc 40 0a 96 3c ff 25 83 bc 48 df 09 bd
       -0.023321528 0.018315434 -0.016009329 -0.033660203
0000e0 a0 d3 d4 bc 8b 69 15 bd f4 ec 74 3c ce d5 8e bb
       -0.025979817 -0.036477607 0.014949072 -0.0043589836
0000f0 d7 b5 15 bd d2 97 2e bb f7 67 82 bc 46 d5 5a bc
       -0.03655037 -0.0026640785 -0.015918715 -0.013356512
000100 49 0a 01 bd bd f0 d5 bc 69 9e 89 3d 8a da a0 3d
       -0.03150395 -0.02611577 0.067196675 0.07854183
000110 72 22 89 bd 74 77 85 bd 09 b3 da bb 9f 49 49 3b
       -0.06696023 -0.065169245 -0.0066741747 0.0030714048
000120 0f 15 15 bb 88 d3 18 bc c2 27 b3 bd 40 af 68 bd
       -0.0022748148 -0.009327777 -0.087478176 -0.056807756
000130 79 2c 58 3d 14 ae 11 3d 39 7f c6 bc 72 48 6e bc
       0.052776787 0.035566404 -0.024230586 -0.0145436395
000140 13 a0 1e bc f1 2b 6f bc d3 d9 d3 bb 5c ed 75 3d
       -0.009681719 -0.014597879 -0.0064651757 0.060040817
000150 67 0e 65 3d fb c9 33 3d ca 93 08 3b c5 1d a6 ba
       0.05592194 0.043893795 0.0020840042 -0.0012673667
000160 a2 05 4f bc 0c 26 77 3c 8d 91 3f bb 19 09 8c 3c
       -0.01263562 0.015084755 -0.0029231042 0.017094182
000170 32 98 8f 3c f6 df 94 bc dd 0c d1 bb 6d 42 1d bb
       0.017528627 -0.0181732 -0.0063797073 -0.0023995892
000180 02 64 c2 bc 8d f3 e7 3b 43 33 61 bb 6b ec b9 bb
       -0.023729328 0.007078594 -0.003436283 -0.005673935
000190 4a 7d 39 3c 11 53 1c 3d 4f 2a 29 3d ef eb 7a bb
       0.011321375 0.038165156 0.041300114 -0.00382876
0001a0 6a 25 1a bd 32 7a c6 3b 2b b5 d2 ba 54 b0 1e 3c
       -0.037633337 0.0060570473 -0.0016075721 0.009685595
0001b0 8b ae 03 bd c8 8c 8a bc 02 64 dd ba b1 3f 0c bc
       -0.03214888 -0.016912833 -0.0016890767 -0.008560107
0001c0 2c 88 f7 bc d3 8d 0c bd aa 70 eb bc 82 89 6b bb
       -0.030216299 -0.03431494 -0.028740246 -0.0035940115
0001d0 33 fc cc 3c 13 bb 02 3d 2e fe 3f 3d 03 fa 30 3d
       0.025022602 0.03191669 0.046873264 0.04320718
0001e0 4f 3b ae 3c 5d 45 4b 3d 0d da 0d 3d 96 3e 23 bd
       0.021268515 0.049626697 0.034631778 -0.03985461
0001f0 fb 70 ef bc 43 ae 35 bd 88 2a 23 bc ea a0 bd bc
       -0.029228678 -0.044355642 -0.009958871 -0.023148019
000200 26 a0 e4 3c ad 34 56 ba f3 64 77 bd bb dd 46 bd
       0.027908396 -0.00081713015 -0.060399007 -0.048551302
000210 8a 95 bb 3c 55 99 c2 3c e8 fe 4c 3d dc 68 2e 3d
       0.022898454 0.023754755 0.050047785 0.04258047
000220 54 1a a0 3d 51 9e 79 3d 8d a8 1d 3d ac 1e 24 3c
       0.07817522 0.060941998 0.03849082 0.010017078
000230 9d ee 76 bb f5 13 a5 bc 5a 60 85 bc 6a 50 24 3d
       -0.0037678846 -0.020151118 -0.016281296 0.04011575
000240 3a fe 62 3c 26 d4 9a 3c bb 1d ee bc e4 15 22 bd
       0.013854558 0.018899988 -0.029066911 -0.039571658
000250 6c 29 21 bd 5c e9 5b 3d 19 ac a2 3c a6 76 9e 3d
       -0.039346144 0.053689346 0.019857453 0.07737474
000260 e5 1b 47 3d b0 8f 8d 3d a1 5b 71 3d 24 42 e5 3b
       0.048610587 0.06912172 0.058925275 0.00699641
000270 0b 1f 11 bd bf f6 62 bc 45 d3 5c 3c 53 e8 07 3c
       -0.035429996 -0.013852774 0.013478105 0.0082951365
000280 d5 16 e7 3b d7 44 06 3d 65 08 09 3d 71 a2 15 bd
       0.0070522823 0.032780495 0.03345527 -0.03653187
000290 63 23 46 bd 23 29 23 bd 48 96 bc bc ab 56 2f bd
       -0.04837359 -0.039834153 -0.023020878 -0.042807262
0002a0 66 af c0 ba 54 16 1c bd 5b 24 57 bd 41 99 77 bd
       -0.001470071 -0.03810723 -0.052524906 -0.06044889
0002b0 35 b3 52 3c 5e 8c 09 3d 92 81 53 3d 26 2f 83 3c
       0.012860109 0.03358113 0.05163724 0.016013693
0002c0 aa 47 77 bc 08 36 ce bc e3 9e d1 bc 09 0d 0d bd
       -0.01509277 -0.025172248 -0.025588458 -0.03443626
0002d0 44 39 42 bd 8b 5a 49 bd 1a 2c 76 bd 2b 47 22 bd
       -0.047417894 -0.049158614 -0.060100652 -0.039618652
0002e0 d3 20 5e bd aa 93 12 bd 70 32 10 bd a6 84 4a bd
       -0.054230522 -0.035785355 -0.03520435 -0.04944291
0002f0 79 53 0e bc e5 40 83 bc 48 86 e4 bc 83 3a 36 bc
       -0.008686894 -0.016022155 -0.027896062 -0.011122349
000300 c2 e2 df bc 53 e3 bb bc 65 a8 36 bd 59 31 32 3c
       -0.027329806 -0.022935545 -0.044594187 0.010876023
000310 2b 02 10 3c 81 65 49 ba c3 ba 78 bc a5 7b 17 bd
       0.008789579 -0.0007682667 -0.015181246 -0.03698315
000320 47 57 be bc 6c 0b 0a bc b3 52 55 bc 53 2e 11 bb
       -0.023234976 -0.008425575 -0.013020205 -0.0022152856
000330 43 35 c0 3a 8b 7d 0c bc 9d 90 a3 bc d5 26 b5 bc
       0.0014664311 -0.008574854 -0.019966418 -0.022113243
000340 39 1e 54 bd d6 17 fc bc 4b 15 0a bd 7a 4e af bc
       -0.051786635 -0.030773085 -0.033711713 -0.021399725
000350 93 f5 1b bc 57 ef cc bc 11 26 b5 bc 08 1e 29 bd
       -0.009518999 -0.02501647 -0.022112878 -0.041288406
000360 67 88 32 bd 5e 44 0f bc e2 9a df bc 49 bd 23 bb
       -0.043587115 -0.008744327 -0.027295534 -0.002498465
000370 83 b8 d3 bc 5c a7 cf bc 4d f4 da bc f0 14 9d bc
       -0.025844818 -0.025348358 -0.02672782 -0.019175023
000380 e4 f9 09 bd 8f 29 02 3b 9d bb 81 bc db 83 b6 bc
       -0.03368558 0.0019861197 -0.015836531 -0.02227967
000390 96 ca 69 bd c1 89 21 bd 1a d8 17 bd 54 7e 46 bc
       -0.057077967 -0.039438013 -0.037071325 -0.01211508
0003a0 7e 4c 5b bc ec b1 cf bc d7 52 15 bc 06 ad e2 bc
       -0.013384936 -0.025353394 -0.009113989 -0.027670395
0003b0 c7 d3 58 bd 92 6b 55 bd 2e 84 a1 3b 7f 6f 36 bc
       -0.05293634 -0.05210454 0.004929087 -0.011134981
0003c0 a3 54 fd 39 cb 43 50 bc c9 8a 4f 3b 22 6b 04 bb
       0.0004831898 -0.012711476 0.0031668416 -0.0020205458
0003d0 a5 9e 1a bd 6b f5 28 3c a1 27 c1 3a be 0e 08 bd
       -0.03774895 0.010312418 0.0014736542 -0.033217184
0003e0 b9 a6 19 bd 96 bf d7 bc ec a9 0b bb 17 bc c7 bc
       -0.037512515 -0.026336472 -0.0021310998 -0.02438168
0003f0 ff 4a 5d 3c 32 47 94 bc 56 dd 48 bc af bc b6 bc
       0.01350665 -0.018100355 -0.012259802 -0.022306768

classifier.1.bias f4 [50]
000000 a2 33 c4 bc d7 7e e2 bc 04 11 8f bc 22 f0 0a 3c
       -0.023950402 -0.027648373 -0.017464168 0.008480104
000010 b5 16 0a 3c a9 aa 96 bc 49 60 91 3b ec f8 b5 bc
       0.008428265 -0.018391924 0.004436527 -0.022213422
000020 ee 5f 6e bc 94 24 af 3c c6 1d 73 bc 6c 59 3f 3b
       -0.014549239 0.021379746 -0.0148386415 0.0029197587
000030 1f b1 23 bd 6a 22 87 3b f4 d4 14 bd 0a 85 7e ba
       -0.039963838 0.0041239755 -0.0363359 -0.00097091554
000040 45 44 37 3c b0 13 61 bb e6 90 b1 bc 3e 3a bf ba
       0.01118571 -0.003434401 -0.021675538 -0.0014589501
000050 93 95 5e 3c 08 4d 8a 39 f2 b7 a0 3c 9b 4a 04 bc
       0.013585466 0.00026378804 0.019618962 -0.008074428
000060 43 d3 84 3c 0f 36 07 bd 2d f4 a0 3c 8c ec 01 bd
       0.016214019 -0.03301054 0.019647682 -0.03171973
000070 a5 62 97 bb f5 2e be bc 32 4e b0 3b 26 38 9d bc
       -0.0046199136 -0.02321575 0.0053804154 -0.019191813
000080 82 63 cb b9 2a 33 ad bc b6 0e a1 3b 06 95 7e bc
       -0.00038793316 -0.021142561 0.0049150838 -0.01553846
000090 93 da ae bc 43 3c 54 3c 7b 72 97 3c 37 1a 9d 3a
       -0.021344459 0.012953821 0.018487206 0.0011985962
0000a0 04 31 a8 3c e8 5b d6 bb 2c c6 9c 3c d6 37 49 bd
       0.020531185 -0.006541718 0.019137464 -0.049125515
0000b0 f3 eb ac 3c 08 0c ba bc ab f5 af 3c 26 3d 0c 3c
       0.021108603 -0.022710815 0.021479448 0.008559501
0000c0 24 d8 e1 bb dd 8b a6 3b
       -0.006892221 0.005082591
